MEL CREADO
COMPILADO
Model: "functional_7"
__________________________________________________________________________________________________
Layer (type)                    Output Shape         Param #     Connected to                     
==================================================================================================
input_4 (InputLayer)            [(None, 128, 196, 1) 0                                            
__________________________________________________________________________________________________
zero_padding2d_3 (ZeroPadding2D (None, 132, 200, 1)  0           input_4[0][0]                    
__________________________________________________________________________________________________
conv2d_48 (Conv2D)              (None, 128, 196, 10) 250         zero_padding2d_3[0][0]           
__________________________________________________________________________________________________
activation_45 (Activation)      (None, 128, 196, 10) 0           conv2d_48[0][0]                  
__________________________________________________________________________________________________
batch_normalization_45 (BatchNo (None, 128, 196, 10) 40          activation_45[0][0]              
__________________________________________________________________________________________________
conv2d_49 (Conv2D)              (None, 128, 196, 12) 1080        batch_normalization_45[0][0]     
__________________________________________________________________________________________________
activation_46 (Activation)      (None, 128, 196, 12) 0           conv2d_49[0][0]                  
__________________________________________________________________________________________________
batch_normalization_46 (BatchNo (None, 128, 196, 12) 48          activation_46[0][0]              
__________________________________________________________________________________________________
conv2d_50 (Conv2D)              (None, 128, 196, 14) 1512        batch_normalization_46[0][0]     
__________________________________________________________________________________________________
activation_47 (Activation)      (None, 128, 196, 14) 0           conv2d_50[0][0]                  
__________________________________________________________________________________________________
batch_normalization_47 (BatchNo (None, 128, 196, 14) 56          activation_47[0][0]              
__________________________________________________________________________________________________
conv2d_51 (Conv2D)              (None, 128, 196, 15) 1890        batch_normalization_47[0][0]     
__________________________________________________________________________________________________
activation_48 (Activation)      (None, 128, 196, 15) 0           conv2d_51[0][0]                  
__________________________________________________________________________________________________
batch_normalization_48 (BatchNo (None, 128, 196, 15) 60          activation_48[0][0]              
__________________________________________________________________________________________________
conv2d_52 (Conv2D)              (None, 128, 196, 19) 2565        batch_normalization_48[0][0]     
__________________________________________________________________________________________________
activation_49 (Activation)      (None, 128, 196, 19) 0           conv2d_52[0][0]                  
__________________________________________________________________________________________________
batch_normalization_49 (BatchNo (None, 128, 196, 19) 76          activation_49[0][0]              
__________________________________________________________________________________________________
conv2d_53 (Conv2D)              (None, 128, 196, 21) 3591        batch_normalization_49[0][0]     
__________________________________________________________________________________________________
activation_50 (Activation)      (None, 128, 196, 21) 0           conv2d_53[0][0]                  
__________________________________________________________________________________________________
batch_normalization_50 (BatchNo (None, 128, 196, 21) 84          activation_50[0][0]              
__________________________________________________________________________________________________
conv2d_54 (Conv2D)              (None, 128, 196, 23) 4347        batch_normalization_50[0][0]     
__________________________________________________________________________________________________
activation_51 (Activation)      (None, 128, 196, 23) 0           conv2d_54[0][0]                  
__________________________________________________________________________________________________
batch_normalization_51 (BatchNo (None, 128, 196, 23) 92          activation_51[0][0]              
__________________________________________________________________________________________________
conv2d_55 (Conv2D)              (None, 128, 196, 25) 5175        batch_normalization_51[0][0]     
__________________________________________________________________________________________________
activation_52 (Activation)      (None, 128, 196, 25) 0           conv2d_55[0][0]                  
__________________________________________________________________________________________________
batch_normalization_52 (BatchNo (None, 128, 196, 25) 100         activation_52[0][0]              
__________________________________________________________________________________________________
conv2d_56 (Conv2D)              (None, 128, 196, 23) 5175        batch_normalization_52[0][0]     
__________________________________________________________________________________________________
activation_53 (Activation)      (None, 128, 196, 23) 0           conv2d_56[0][0]                  
__________________________________________________________________________________________________
batch_normalization_53 (BatchNo (None, 128, 196, 23) 92          activation_53[0][0]              
__________________________________________________________________________________________________
conv2d_57 (Conv2D)              (None, 128, 196, 21) 4347        batch_normalization_53[0][0]     
__________________________________________________________________________________________________
activation_54 (Activation)      (None, 128, 196, 21) 0           conv2d_57[0][0]                  
__________________________________________________________________________________________________
batch_normalization_54 (BatchNo (None, 128, 196, 21) 84          activation_54[0][0]              
__________________________________________________________________________________________________
conv2d_58 (Conv2D)              (None, 128, 196, 19) 3591        batch_normalization_54[0][0]     
__________________________________________________________________________________________________
tf_op_layer_AddV2_6 (TensorFlow [(None, 128, 196, 19 0           conv2d_58[0][0]                  
                                                                 conv2d_52[0][0]                  
__________________________________________________________________________________________________
activation_55 (Activation)      (None, 128, 196, 19) 0           tf_op_layer_AddV2_6[0][0]        
__________________________________________________________________________________________________
batch_normalization_55 (BatchNo (None, 128, 196, 19) 76          activation_55[0][0]              
__________________________________________________________________________________________________
conv2d_59 (Conv2D)              (None, 128, 196, 15) 2565        batch_normalization_55[0][0]     
__________________________________________________________________________________________________
activation_56 (Activation)      (None, 128, 196, 15) 0           conv2d_59[0][0]                  
__________________________________________________________________________________________________
batch_normalization_56 (BatchNo (None, 128, 196, 15) 60          activation_56[0][0]              
__________________________________________________________________________________________________
conv2d_60 (Conv2D)              (None, 128, 196, 14) 1890        batch_normalization_56[0][0]     
__________________________________________________________________________________________________
activation_57 (Activation)      (None, 128, 196, 14) 0           conv2d_60[0][0]                  
__________________________________________________________________________________________________
batch_normalization_57 (BatchNo (None, 128, 196, 14) 56          activation_57[0][0]              
__________________________________________________________________________________________________
conv2d_61 (Conv2D)              (None, 128, 196, 12) 1512        batch_normalization_57[0][0]     
__________________________________________________________________________________________________
tf_op_layer_AddV2_7 (TensorFlow [(None, 128, 196, 12 0           conv2d_61[0][0]                  
                                                                 conv2d_49[0][0]                  
__________________________________________________________________________________________________
activation_58 (Activation)      (None, 128, 196, 12) 0           tf_op_layer_AddV2_7[0][0]        
__________________________________________________________________________________________________
batch_normalization_58 (BatchNo (None, 128, 196, 12) 48          activation_58[0][0]              
__________________________________________________________________________________________________
conv2d_62 (Conv2D)              (None, 128, 196, 10) 3000        batch_normalization_58[0][0]     
__________________________________________________________________________________________________
activation_59 (Activation)      (None, 128, 196, 10) 0           conv2d_62[0][0]                  
__________________________________________________________________________________________________
batch_normalization_59 (BatchNo (None, 128, 196, 10) 40          activation_59[0][0]              
__________________________________________________________________________________________________
spatial_dropout2d_3 (SpatialDro (None, 128, 196, 10) 0           batch_normalization_59[0][0]     
__________________________________________________________________________________________________
conv2d_63 (Conv2D)              (None, 128, 196, 1)  91          spatial_dropout2d_3[0][0]        
==================================================================================================
Total params: 43,593
Trainable params: 43,087
Non-trainable params: 506
__________________________________________________________________________________________________
FIT START
Epoch 1/10000
1201/1201 [==============================] - ETA: 0s - loss: 0.0793 - mae: 0.1916 WARNING:tensorflow:Callbacks method `on_test_batch_end` is slow compared to the batch time (batch time: 0.0020s vs `on_test_batch_end` time: 0.0070s). Check your callbacks.
…
